…
app-1      | DEBUG:matplotlib:matplotlib data path: /usr/local/lib/python3.11/site-packages/matplotlib/mpl-data
app-1      | DEBUG:matplotlib:CONFIGDIR=/root/.config/matplotlib
app-1      | DEBUG:matplotlib:interactive is False
app-1      | DEBUG:matplotlib:platform is linux
app-1      | DEBUG:matplotlib:CACHEDIR=/root/.cache/matplotlib
app-1      | DEBUG:matplotlib.font_manager:Using fontManager instance from /root/.cache/matplotlib/fontlist-v390.json
app-1      | Overriding model.yaml nc=80 with nc=5
app-1      |
app-1      |                    from  n    params  module                                       arguments
app-1      |   0                  -1  1      1392  ultralytics.nn.modules.conv.Conv             [3, 48, 3, 2]
app-1      |   1                  -1  1     41664  ultralytics.nn.modules.conv.Conv             [48, 96, 3, 2]
app-1      |   2                  -1  2    111360  ultralytics.nn.modules.block.C2f             [96, 96, 2, True]
app-1      |   3                  -1  1    166272  ultralytics.nn.modules.conv.Conv             [96, 192, 3, 2]
app-1      |   4                  -1  4    813312  ultralytics.nn.modules.block.C2f             [192, 192, 4, True]
app-1      |   5                  -1  1    664320  ultralytics.nn.modules.conv.Conv             [192, 384, 3, 2]
app-1      |   6                  -1  4   3248640  ultralytics.nn.modules.block.C2f             [384, 384, 4, True]
app-1      |   7                  -1  1   1991808  ultralytics.nn.modules.conv.Conv             [384, 576, 3, 2]
app-1      |   8                  -1  2   3985920  ultralytics.nn.modules.block.C2f             [576, 576, 2, True]
app-1      |   9                  -1  1    831168  ultralytics.nn.modules.block.SPPF            [576, 576, 5]
app-1      |  10                  -1  1         0  torch.nn.modules.upsampling.Upsample         [None, 2, 'nearest']
app-1      |  11             [-1, 6]  1         0  ultralytics.nn.modules.conv.Concat           [1]
app-1      |  12                  -1  2   1993728  ultralytics.nn.modules.block.C2f             [960, 384, 2]
app-1      |  13                  -1  1         0  torch.nn.modules.upsampling.Upsample         [None, 2, 'nearest']
app-1      |  14             [-1, 4]  1         0  ultralytics.nn.modules.conv.Concat           [1]
app-1      |  15                  -1  2    517632  ultralytics.nn.modules.block.C2f             [576, 192, 2]
app-1      |  16                  -1  1    332160  ultralytics.nn.modules.conv.Conv             [192, 192, 3, 2]
app-1      |  17            [-1, 12]  1         0  ultralytics.nn.modules.conv.Concat           [1]
app-1      |  18                  -1  2   1846272  ultralytics.nn.modules.block.C2f             [576, 384, 2]
app-1      |  19                  -1  1   1327872  ultralytics.nn.modules.conv.Conv             [384, 384, 3, 2]
app-1      |  20             [-1, 9]  1         0  ultralytics.nn.modules.conv.Concat           [1]
app-1      |  21                  -1  2   4207104  ultralytics.nn.modules.block.C2f             [960, 576, 2]
app-1      |  22        [15, 18, 21]  1   3778591  ultralytics.nn.modules.head.Detect           [5, [192, 384, 576]]
app-1      | Model summary: 169 layers, 25,859,215 parameters, 25,859,199 gradients, 79.1 GFLOPs
app-1      |
app-1      | Transferred 469/475 items from pretrained weights
app-1      | Freezing layer 'model.22.dfl.conv.weight'
app-1      | AMP: running Automatic Mixed Precision (AMP) checks...
app-1      | DEBUG:urllib3.connectionpool:Resetting dropped connection: mlflow
app-1      | DEBUG:urllib3.connectionpool:http://mlflow:5001 "GET /api/2.0/mlflow/runs/get?run_uuid=00b6540232074edbb54af07fd77419af&run_id=00b6540232074edbb54af07fd77419af HTTP/1.1" 200 1411
…
